Seq2SeqModule(
  (transformer): EncoderDecoderModel(
    (encoder): BertModel(
      (embeddings): BertEmbeddings(
        (word_embeddings): Embedding(1, 512, padding_idx=0)
        (position_embeddings): Embedding(1024, 512)
        (token_type_embeddings): Embedding(2, 512)
        (LayerNorm): LayerNorm((512,), eps=1e-12, elementwise_affine=True)
        (dropout): Dropout(p=0.1, inplace=False)
      )
      (encoder): BertEncoder(
        (layer): ModuleList(
          (0): BertLayer(
            (attention): BertAttention(
              (self): BertSelfAttention(
                (query): Linear(in_features=512, out_features=512, bias=True)
                (key): Linear(in_features=512, out_features=512, bias=True)
                (value): Linear(in_features=512, out_features=512, bias=True)
                (dropout): Dropout(p=0.1, inplace=False)
                (distance_embedding): Embedding(2047, 64)
              )
              (output): BertSelfOutput(
                (dense): Linear(in_features=512, out_features=512, bias=True)
                (LayerNorm): LayerNorm((512,), eps=1e-12, elementwise_affine=True)
                (dropout): Dropout(p=0.1, inplace=False)
              )
            )
            (intermediate): BertIntermediate(
              (dense): Linear(in_features=512, out_features=2048, bias=True)
            )
            (output): BertOutput(
              (dense): Linear(in_features=2048, out_features=512, bias=True)
              (LayerNorm): LayerNorm((512,), eps=1e-12, elementwise_affine=True)
              (dropout): Dropout(p=0.1, inplace=False)
            )
          )
          (1): BertLayer(
            (attention): BertAttention(
              (self): BertSelfAttention(
                (query): Linear(in_features=512, out_features=512, bias=True)
                (key): Linear(in_features=512, out_features=512, bias=True)
                (value): Linear(in_features=512, out_features=512, bias=True)
                (dropout): Dropout(p=0.1, inplace=False)
                (distance_embedding): Embedding(2047, 64)
              )
              (output): BertSelfOutput(
                (dense): Linear(in_features=512, out_features=512, bias=True)
                (LayerNorm): LayerNorm((512,), eps=1e-12, elementwise_affine=True)
                (dropout): Dropout(p=0.1, inplace=False)
              )
            )
            (intermediate): BertIntermediate(
              (dense): Linear(in_features=512, out_features=2048, bias=True)
            )
            (output): BertOutput(
              (dense): Linear(in_features=2048, out_features=512, bias=True)
              (LayerNorm): LayerNorm((512,), eps=1e-12, elementwise_affine=True)
              (dropout): Dropout(p=0.1, inplace=False)
            )
          )
          (2): BertLayer(
            (attention): BertAttention(
              (self): BertSelfAttention(
                (query): Linear(in_features=512, out_features=512, bias=True)
                (key): Linear(in_features=512, out_features=512, bias=True)
                (value): Linear(in_features=512, out_features=512, bias=True)
                (dropout): Dropout(p=0.1, inplace=False)
                (distance_embedding): Embedding(2047, 64)
              )
              (output): BertSelfOutput(
                (dense): Linear(in_features=512, out_features=512, bias=True)
                (LayerNorm): LayerNorm((512,), eps=1e-12, elementwise_affine=True)
                (dropout): Dropout(p=0.1, inplace=False)
              )
            )
            (intermediate): BertIntermediate(
              (dense): Linear(in_features=512, out_features=2048, bias=True)
            )
            (output): BertOutput(
              (dense): Linear(in_features=2048, out_features=512, bias=True)
              (LayerNorm): LayerNorm((512,), eps=1e-12, elementwise_affine=True)
              (dropout): Dropout(p=0.1, inplace=False)
            )
          )
          (3): BertLayer(
            (attention): BertAttention(
              (self): BertSelfAttention(
                (query): Linear(in_features=512, out_features=512, bias=True)
                (key): Linear(in_features=512, out_features=512, bias=True)
                (value): Linear(in_features=512, out_features=512, bias=True)
                (dropout): Dropout(p=0.1, inplace=False)
                (distance_embedding): Embedding(2047, 64)
              )
              (output): BertSelfOutput(
                (dense): Linear(in_features=512, out_features=512, bias=True)
                (LayerNorm): LayerNorm((512,), eps=1e-12, elementwise_affine=True)
                (dropout): Dropout(p=0.1, inplace=False)
              )
            )
            (intermediate): BertIntermediate(
              (dense): Linear(in_features=512, out_features=2048, bias=True)
            )
            (output): BertOutput(
              (dense): Linear(in_features=2048, out_features=512, bias=True)
              (LayerNorm): LayerNorm((512,), eps=1e-12, elementwise_affine=True)
              (dropout): Dropout(p=0.1, inplace=False)
            )
          )
        )
      )
      (pooler): BertPooler(
        (dense): Linear(in_features=512, out_features=512, bias=True)
        (activation): Tanh()
      )
    )
    (decoder): BertLMHeadModel(
      (bert): BertModel(
        (embeddings): BertEmbeddings(
          (word_embeddings): Embedding(1, 512, padding_idx=0)
          (position_embeddings): Embedding(1024, 512)
          (token_type_embeddings): Embedding(2, 512)
          (LayerNorm): LayerNorm((512,), eps=1e-12, elementwise_affine=True)
          (dropout): Dropout(p=0.1, inplace=False)
        )
        (encoder): BertEncoder(
          (layer): ModuleList(
            (0): BertLayer(
              (attention): BertAttention(
                (self): BertSelfAttention(
                  (query): Linear(in_features=512, out_features=512, bias=True)
                  (key): Linear(in_features=512, out_features=512, bias=True)
                  (value): Linear(in_features=512, out_features=512, bias=True)
                  (dropout): Dropout(p=0.1, inplace=False)
                  (distance_embedding): Embedding(2047, 64)
                )
                (output): BertSelfOutput(
                  (dense): Linear(in_features=512, out_features=512, bias=True)
                  (LayerNorm): LayerNorm((512,), eps=1e-12, elementwise_affine=True)
                  (dropout): Dropout(p=0.1, inplace=False)
                )
              )
              (crossattention): BertAttention(
                (self): BertSelfAttention(
                  (query): Linear(in_features=512, out_features=512, bias=True)
                  (key): Linear(in_features=512, out_features=512, bias=True)
                  (value): Linear(in_features=512, out_features=512, bias=True)
                  (dropout): Dropout(p=0.1, inplace=False)
                  (distance_embedding): Embedding(2047, 64)
                )
                (output): BertSelfOutput(
                  (dense): Linear(in_features=512, out_features=512, bias=True)
                  (LayerNorm): LayerNorm((512,), eps=1e-12, elementwise_affine=True)
                  (dropout): Dropout(p=0.1, inplace=False)
                )
              )
              (intermediate): BertIntermediate(
                (dense): Linear(in_features=512, out_features=2048, bias=True)
              )
              (output): BertOutput(
                (dense): Linear(in_features=2048, out_features=512, bias=True)
                (LayerNorm): LayerNorm((512,), eps=1e-12, elementwise_affine=True)
                (dropout): Dropout(p=0.1, inplace=False)
              )
            )
            (1): BertLayer(
              (attention): BertAttention(
                (self): BertSelfAttention(
                  (query): Linear(in_features=512, out_features=512, bias=True)
                  (key): Linear(in_features=512, out_features=512, bias=True)
                  (value): Linear(in_features=512, out_features=512, bias=True)
                  (dropout): Dropout(p=0.1, inplace=False)
                  (distance_embedding): Embedding(2047, 64)
                )
                (output): BertSelfOutput(
                  (dense): Linear(in_features=512, out_features=512, bias=True)
                  (LayerNorm): LayerNorm((512,), eps=1e-12, elementwise_affine=True)
                  (dropout): Dropout(p=0.1, inplace=False)
                )
              )
              (crossattention): BertAttention(
                (self): BertSelfAttention(
                  (query): Linear(in_features=512, out_features=512, bias=True)
                  (key): Linear(in_features=512, out_features=512, bias=True)
                  (value): Linear(in_features=512, out_features=512, bias=True)
                  (dropout): Dropout(p=0.1, inplace=False)
                  (distance_embedding): Embedding(2047, 64)
                )
                (output): BertSelfOutput(
                  (dense): Linear(in_features=512, out_features=512, bias=True)
                  (LayerNorm): LayerNorm((512,), eps=1e-12, elementwise_affine=True)
                  (dropout): Dropout(p=0.1, inplace=False)
                )
              )
              (intermediate): BertIntermediate(
                (dense): Linear(in_features=512, out_features=2048, bias=True)
              )
              (output): BertOutput(
                (dense): Linear(in_features=2048, out_features=512, bias=True)
                (LayerNorm): LayerNorm((512,), eps=1e-12, elementwise_affine=True)
                (dropout): Dropout(p=0.1, inplace=False)
              )
            )
            (2): BertLayer(
              (attention): BertAttention(
                (self): BertSelfAttention(
                  (query): Linear(in_features=512, out_features=512, bias=True)
                  (key): Linear(in_features=512, out_features=512, bias=True)
                  (value): Linear(in_features=512, out_features=512, bias=True)
                  (dropout): Dropout(p=0.1, inplace=False)
                  (distance_embedding): Embedding(2047, 64)
                )
                (output): BertSelfOutput(
                  (dense): Linear(in_features=512, out_features=512, bias=True)
                  (LayerNorm): LayerNorm((512,), eps=1e-12, elementwise_affine=True)
                  (dropout): Dropout(p=0.1, inplace=False)
                )
              )
              (crossattention): BertAttention(
                (self): BertSelfAttention(
                  (query): Linear(in_features=512, out_features=512, bias=True)
                  (key): Linear(in_features=512, out_features=512, bias=True)
                  (value): Linear(in_features=512, out_features=512, bias=True)
                  (dropout): Dropout(p=0.1, inplace=False)
                  (distance_embedding): Embedding(2047, 64)
                )
                (output): BertSelfOutput(
                  (dense): Linear(in_features=512, out_features=512, bias=True)
                  (LayerNorm): LayerNorm((512,), eps=1e-12, elementwise_affine=True)
                  (dropout): Dropout(p=0.1, inplace=False)
                )
              )
              (intermediate): BertIntermediate(
                (dense): Linear(in_features=512, out_features=2048, bias=True)
              )
              (output): BertOutput(
                (dense): Linear(in_features=2048, out_features=512, bias=True)
                (LayerNorm): LayerNorm((512,), eps=1e-12, elementwise_affine=True)
                (dropout): Dropout(p=0.1, inplace=False)
              )
            )
            (3): BertLayer(
              (attention): BertAttention(
                (self): BertSelfAttention(
                  (query): Linear(in_features=512, out_features=512, bias=True)
                  (key): Linear(in_features=512, out_features=512, bias=True)
                  (value): Linear(in_features=512, out_features=512, bias=True)
                  (dropout): Dropout(p=0.1, inplace=False)
                  (distance_embedding): Embedding(2047, 64)
                )
                (output): BertSelfOutput(
                  (dense): Linear(in_features=512, out_features=512, bias=True)
                  (LayerNorm): LayerNorm((512,), eps=1e-12, elementwise_affine=True)
                  (dropout): Dropout(p=0.1, inplace=False)
                )
              )
              (crossattention): BertAttention(
                (self): BertSelfAttention(
                  (query): Linear(in_features=512, out_features=512, bias=True)
                  (key): Linear(in_features=512, out_features=512, bias=True)
                  (value): Linear(in_features=512, out_features=512, bias=True)
                  (dropout): Dropout(p=0.1, inplace=False)
                  (distance_embedding): Embedding(2047, 64)
                )
                (output): BertSelfOutput(
                  (dense): Linear(in_features=512, out_features=512, bias=True)
                  (LayerNorm): LayerNorm((512,), eps=1e-12, elementwise_affine=True)
                  (dropout): Dropout(p=0.1, inplace=False)
                )
              )
              (intermediate): BertIntermediate(
                (dense): Linear(in_features=512, out_features=2048, bias=True)
              )
              (output): BertOutput(
                (dense): Linear(in_features=2048, out_features=512, bias=True)
                (LayerNorm): LayerNorm((512,), eps=1e-12, elementwise_affine=True)
                (dropout): Dropout(p=0.1, inplace=False)
              )
            )
            (4): BertLayer(
              (attention): BertAttention(
                (self): BertSelfAttention(
                  (query): Linear(in_features=512, out_features=512, bias=True)
                  (key): Linear(in_features=512, out_features=512, bias=True)
                  (value): Linear(in_features=512, out_features=512, bias=True)
                  (dropout): Dropout(p=0.1, inplace=False)
                  (distance_embedding): Embedding(2047, 64)
                )
                (output): BertSelfOutput(
                  (dense): Linear(in_features=512, out_features=512, bias=True)
                  (LayerNorm): LayerNorm((512,), eps=1e-12, elementwise_affine=True)
                  (dropout): Dropout(p=0.1, inplace=False)
                )
              )
              (crossattention): BertAttention(
                (self): BertSelfAttention(
                  (query): Linear(in_features=512, out_features=512, bias=True)
                  (key): Linear(in_features=512, out_features=512, bias=True)
                  (value): Linear(in_features=512, out_features=512, bias=True)
                  (dropout): Dropout(p=0.1, inplace=False)
                  (distance_embedding): Embedding(2047, 64)
                )
                (output): BertSelfOutput(
                  (dense): Linear(in_features=512, out_features=512, bias=True)
                  (LayerNorm): LayerNorm((512,), eps=1e-12, elementwise_affine=True)
                  (dropout): Dropout(p=0.1, inplace=False)
                )
              )
              (intermediate): BertIntermediate(
                (dense): Linear(in_features=512, out_features=2048, bias=True)
              )
              (output): BertOutput(
                (dense): Linear(in_features=2048, out_features=512, bias=True)
                (LayerNorm): LayerNorm((512,), eps=1e-12, elementwise_affine=True)
                (dropout): Dropout(p=0.1, inplace=False)
              )
            )
            (5): BertLayer(
              (attention): BertAttention(
                (self): BertSelfAttention(
                  (query): Linear(in_features=512, out_features=512, bias=True)
                  (key): Linear(in_features=512, out_features=512, bias=True)
                  (value): Linear(in_features=512, out_features=512, bias=True)
                  (dropout): Dropout(p=0.1, inplace=False)
                  (distance_embedding): Embedding(2047, 64)
                )
                (output): BertSelfOutput(
                  (dense): Linear(in_features=512, out_features=512, bias=True)
                  (LayerNorm): LayerNorm((512,), eps=1e-12, elementwise_affine=True)
                  (dropout): Dropout(p=0.1, inplace=False)
                )
              )
              (crossattention): BertAttention(
                (self): BertSelfAttention(
                  (query): Linear(in_features=512, out_features=512, bias=True)
                  (key): Linear(in_features=512, out_features=512, bias=True)
                  (value): Linear(in_features=512, out_features=512, bias=True)
                  (dropout): Dropout(p=0.1, inplace=False)
                  (distance_embedding): Embedding(2047, 64)
                )
                (output): BertSelfOutput(
                  (dense): Linear(in_features=512, out_features=512, bias=True)
                  (LayerNorm): LayerNorm((512,), eps=1e-12, elementwise_affine=True)
                  (dropout): Dropout(p=0.1, inplace=False)
                )
              )
              (intermediate): BertIntermediate(
                (dense): Linear(in_features=512, out_features=2048, bias=True)
              )
              (output): BertOutput(
                (dense): Linear(in_features=2048, out_features=512, bias=True)
                (LayerNorm): LayerNorm((512,), eps=1e-12, elementwise_affine=True)
                (dropout): Dropout(p=0.1, inplace=False)
              )
            )
          )
        )
      )
      (cls): BertOnlyMLMHead(
        (predictions): BertLMPredictionHead(
          (transform): BertPredictionHeadTransform(
            (dense): Linear(in_features=512, out_features=512, bias=True)
            (LayerNorm): LayerNorm((512,), eps=1e-12, elementwise_affine=True)
          )
          (decoder): Linear(in_features=512, out_features=1, bias=True)
        )
      )
    )
  )
  (bar_embedding): Embedding(264, 512)
  (pos_embedding): Embedding(513, 512)
  (desc_in): Embedding(965, 512)
  (in_layer): Embedding(1357, 512)
  (out_layer): Linear(in_features=512, out_features=1357, bias=False)
  (loss_fn): CrossEntropyLoss()
)
Sanity Checking: 0it [00:00, ?it/s]Sanity Checking:   0%|          | 0/2 [00:00<?, ?it/s]Sanity Checking DataLoader 0:   0%|          | 0/2 [00:00<?, ?it/s]Sanity Checking DataLoader 0:  50%|█████     | 1/2 [00:00<00:00,  8.74it/s]Sanity Checking DataLoader 0: 100%|██████████| 2/2 [00:00<00:00,  2.16it/s]      
…
